…
":"1848a108"},{"cell_type":"markdown","metadata":{"id":"d6b1ea21"},"source":["To generate masks, just run `generate` on an image."],"id":"d6b1ea21"},{"cell_type":"code","execution_count":null,"metadata":{"colab":{"base_uri":"https://localhost:8080/"},"executionInfo":{"elapsed":670,"status":"ok","timestamp":1689147334671,"user":{"displayName":"김웅기","userId":"06594704263944580607"},"user_tz":-540},"id":"9OZZSDgIBs_P","outputId":"6b1ed09c-19b6-41cf-f396-51707769904c"},"outputs":[{"data":{"text/plain":["Sam(\n","  (image_encoder): ImageEncoderViT(\n","    (patch_embed): PatchEmbed(\n","      (proj): Conv2d(3, 1280, kernel_size=(16, 16), stride=(16, 16))\n","    )\n","    (blocks): ModuleList(\n","      (0-31): 32 x Block(\n","        (norm1): LayerNorm((1280,), eps=1e-06, elementwise_affine=True)\n","        (attn): Attention(\n","          (qkv): Linear(in_features=1280, out_features=3840, bias=True)\n","          (proj): Linear(in_features=1280, out_features=1280, bias=True)\n","        )\n","        (norm2): LayerNorm((1280,), eps=1e-06, elementwise_affine=True)\n","        (mlp): MLPBlock(\n","          (lin1): Linear(in_features=1280, out_features=5120, bias=True)\n","          (lin2): Linear(in_features=5120, out_features=1280, bias=True)\n","          (act): GELU(approximate='none')\n","        )\n","      )\n","    )\n","    (neck): Sequential(\n","      (0): Conv2d(1280, 256, kernel_size=(1, 1), stride=(1, 1), bias=False)\n","      (1): LayerNorm2d()\n","      (2): Conv2d(256, 256, kernel_size=(3, 3), stride=(1, 1), padding=(1, 1), bias=False)\n","      (3): LayerNorm2d()\n","    )\n","  )\n","  (prompt_encoder): PromptEncoder(\n","    (pe_layer): PositionEmbeddingRandom()\n","    (point_embeddings): ModuleList(\n","      (0-3): 4 x Embedding(1, 256)\n","    )\n","    (not_a_point_embed): Embedding(1, 256)\n","    (mask_downscaling): Sequential(\n","      (0): Conv2d(1, 4, kernel_size=(2, 2), stride=(2, 2))\n","      (1): LayerNorm2d()\n","      (2): GELU(approximate='none')\n","      (3): Conv2d(4, 16, kernel_size=(2, 2), stride=(2, 2))\n","      (4): LayerNorm2d()\n","      (5): GELU(approximate='none')\n","      (6): Conv2d(16, 256, kernel_size=(1, 1), stride=(1, 1))\n","    )\n","    (no_mask_embed): Embedding(1, 256)\n","  )\n","  (mask_decoder): MaskDecoder(\n","    (transformer): TwoWayTransformer(\n","      (layers): ModuleList(\n","        (0-1): 2 x TwoWayAttentionBlock(\n","          (self_attn): Attention(\n","            (q_proj): Linear(in_features=256, out_features=256, bias=True)\n","            (k_proj): Linear(in_features=256, out_features=256, bias=True)\n","            (v_proj): Linear(in_features=256, out_features=256, bias=True)\n","            (out_proj): Linear(in_features=256, out_features=256, bias=True)\n","          )\n","          (norm1): LayerNorm((256,), eps=1e-05, elementwise_affine=True)\n","          (cross_attn_token_to_image): Attention(\n","            (q_proj): Linear(in_features=256, out_features=128, bias=True)\n","            (k_proj): Linear(in_features=256, out_features=128, bias=True)\n","            (v_proj): Linear(in_features=256, out_features=128, bias=True)\n","            (out_proj): Linear(in_features=128, out_features=256, bias=True)\n","          )\n","          (norm2): LayerNorm((256,), eps=1e-05, elementwise_affine=True)\n","          (mlp): MLPBlock(\n","            (lin1): Linear(in_features=256, out_features=2048, bias=True)\n","            (lin2): Linear(in_features=2048, out_features=256, bias=True)\n","            (act): ReLU()\n","          )\n","          (norm3): LayerNorm((256,), eps=1e-05, elementwise_affine=True)\n","          (norm4): LayerNorm((256,), eps=1e-05, elementwise_affine=True)\n","          (cross_attn_image_to_token): Attention(\n","            (q_proj): Linear(in_features=256, out_features=128, bias=True)\n","            (k_proj): Linear(in_features=256, out_features=128, bias=True)\n","            (v_proj): Linear(in_features=256, out_features=128, bias=True)\n","            (out_proj): Linear(in_features=128, out_features=256, bias=True)\n","          )\n","        )\n","      )\n","      (final_attn_token_to_image): Attention(\n","        (q_proj): Linear(in_features=256, out_features=128, bias=True)\n","        (k_proj): Linear(in_features=256, out_features=128, bias=True)\n","        (v_proj): Linear(in_features=256, out_features=128, bias=True)\n","        (out_proj): Linear(in_features=128, out_features=256, bias=True)\n","      )\n","      (norm_final_attn): LayerNorm((256,), eps=1e-05, elementwise_affine=True)\n","    )\n","    (iou_token): Embedding(1, 256)\n","    (mask_tokens): Embedding(4, 256)\n","    (output_upscaling): Sequential(\n","      (0): ConvTranspose2d(256, 64, kernel_size=(2, 2), stride=(2, 2))\n","      (1): LayerNorm2d()\n","      (2): GELU(approximate='none')\n","      (3): ConvTranspose2d(64, 32, kernel_size=(2, 2), stride=(2, 2))\n","      (4): GELU(approximate='none')\n","    )\n","    (output_hypernetworks_mlps): ModuleList(\n","      (0-3): 4 x MLP(\n","        (layers): ModuleList(\n","          (0-1): 2 x Linear(in_features=256, out_features=256, bias=True)\n","          (2): Linear(in_features=256, out_features=32, bias=True)\n","        )\n","      )\n","    )\n","    (iou_prediction_head): MLP(\n","      (layers): ModuleList(\n","        (0-1): 2 x Linear(in_features=256, out_features=256, bias=True)\n","        (2): Linear(in_features=256, out_features=4, bias=True)\n","      )\n","    )\n","  )\n",")"]},"execution_count":32,"metadata":{},"output_type":"execute_result"}],"source":["sam"],"id":"9OZZSDgIBs_P"},{"cell_type":"markdown","metadata":{"id":"e36a1a39"},"source":["Mask generation returns a list over masks, where each mask is a dictionary containing various data about the mask. These keys are:\n","* `segmentat
…
